(42, 4) (42,)
42
(42, 4)
Model: "sequential"
_________________________________________________________________
Layer (type)                 Output Shape              Param #   
=================================================================
hidden_layer01 (Dense)       (None, 500)               2500      
_________________________________________________________________
batch_normalization (BatchNo (None, 500)               2000      
_________________________________________________________________
hidden_layer02 (Dense)       (None, 500)               250500    
_________________________________________________________________
hidden_layer03 (Dense)       (None, 500)               250500    
_________________________________________________________________
hidden_layer04 (Dense)       (None, 500)               250500    
_________________________________________________________________
hidden_layer05 (Dense)       (None, 500)               250500    
_________________________________________________________________
output_layer (Dense)         (None, 2)                 1002      
=================================================================
Total params: 1,007,502
Trainable params: 1,006,502
Non-trainable params: 1,000
_________________________________________________________________
Epoch 1/25
1/1 - 2s - loss: 0.7163 - accuracy: 0.2414 - val_loss: 0.6474 - val_accuracy: 0.6250
Epoch 2/25
1/1 - 0s - loss: 0.4053 - accuracy: 0.8621 - val_loss: 0.5946 - val_accuracy: 0.6250
…
